…
Fitted LJ parameters: {'C': array([1.23691023, 3.00776889, 1.        ]), 'O': array([1.43054569, 7.78298302, 1.        ]), 'Cu': array([1.53639021e+00, 1.00000000e-05, 1.38331805e+00])} 

Optimization time: 1180.6279392242432 

Filename: COCu_morse_new_200_5k_LJ_100_iter_1
Dataset size: 300
Target scaling: [8.841315589518457, -3.4844788112662135]
Symmetry function parameters:
     G2_etas: [0.05       0.09653489 0.18637969 0.35984284 0.69474775 1.3413479
 2.58973734 5.        ]
     G2_rs_s: [0, 0, 0, 0, 0, 0, 0, 0]
     G4_etas: [0.005, 0.01]
     G4_zetas: [1.0, 4.0, 6.0]
     G4_gammas: [1.0, -1]
     cutoff: 5.876798323827276
Device: cpu
Model: FullNN(
  (elementwise_models): ModuleDict(
    (Cu): MLP(
      (model_net): Sequential(
        (0): Linear(in_features=96, out_features=30, bias=True)
        (1): Tanh()
        (2): Linear(in_features=30, out_features=30, bias=True)
        (3): Tanh()
        (4): Linear(in_features=30, out_features=30, bias=True)
        (5): Tanh()
        (6): Linear(in_features=30, out_features=1, bias=True)
      )
    )
    (O): MLP(
      (model_net): Sequential(
        (0): Linear(in_features=96, out_features=30, bias=True)
        (1): Tanh()
        (2): Linear(in_features=30, out_features=30, bias=True)
        (3): Tanh()
        (4): Linear(in_features=30, out_features=30, bias=True)
        (5): Tanh()
        (6): Linear(in_features=30, out_features=1, bias=True)
      )
    )
    (C): MLP(
      (model_net): Sequential(
        (0): Linear(in_features=96, out_features=30, bias=True)
        (1): Tanh()
        (2): Linear(in_features=30, out_features=30, bias=True)
        (3): Tanh()
        (4): Linear(in_features=30, out_features=30, bias=True)
        (5): Tanh()
        (6): Linear(in_features=30, out_features=1, bias=True)
      )
    )
  )
)
Architecture:
   Input Layer - 96
   # of Hidden Layers - 3
   Nodes/Layer - 30
Loss Function: <class 'amptorch.model.CustomLoss'>
Force coefficient: 0.04
Optimizer: <class 'torch.optim.lbfgs.LBFGS'>
Learning Rate: 0.1
Batch Size: 300
Epochs: 200
Shuffle: False
Train Split (k-fold if int, fraction if float): 5

Training initiated...
Epoch   EnergyRMSE    ForceRMSE    TrainLoss    ValidLoss     Dur
…
